saved_models/model_full_n15_s15_15_10_4_1.pth (torch, 7028 bytes, 7 tensors)

weight f4 [15, 15]
0.07894716 0.37943593 0.12533335 -0.0017702436 0.4674185 0.803423 0.15650396 -0.037628133
-0.92921436 -0.3254018 0.38982803 -0.3235551 -0.3615389 -0.46383527 -0.39811662 0.05457017
-0.42404082 -0.04862293 -0.093743354 -0.44758546 -0.8981114 -0.40066192 0.029437777 -2.0081382
0.46956602 -0.441553 0.44037881 0.42361933 0.3725892 0.46748453 0.28485456 -0.6591215
-0.9077105 0.22269285 -0.16254196 -0.30334276 -0.53427994 -1.0933117 -3.2652144 -2.0569904
-0.6068622 -1.9450547 0.11626631 0.10921492 0.54926306 -0.040951874 0.2968979 0.054531705
0.028792588 0.28439924 0.8259608 0.37401935 -0.016292395 -0.57371795 -0.40413105 0.3510088
-0.35734677 -0.30515665 -0.2932749 -0.2986794 -0.017021136 -0.10899245 -0.035488643 0.02023107
-0.0662674 -0.19773558 1.0685667 1.3276924e-05 0.06414219 0.064929105 -0.11359658 -1.1475028
0.09355409 0.0962482 0.059709333 -0.007940178 -0.72603065 -0.013651383 -0.06093193 -0.7945573
-0.27876872 0.38862845 -0.10667675 -0.50644165 -0.4776025 -0.7449067 0.89416987 0.86243415
0.77623254 -0.5312398 0.028002283 0.15488136 -0.0509509 0.002735631 0.18952513 0.4113904
0.20635383 0.025540149 -0.49586153 -0.22630808 0.26131392 -0.22998835 -0.17446649 -0.21609536
-0.1824072 -0.020649537 -0.2504093 -0.14073494 -0.14864904 -0.04075191 0.11071258 -0.25665757
-0.17807236 -0.0038869083 -0.17661262 -0.26288435 -0.17359678 -0.12682721 -0.055906814 0.050984494
-0.01469711 0.5576575 -0.036878992 0.03171396 0.5605395 1.0367997 0.5705157 -0.0028783134
0.72434545 -0.5560728 0.5139069 -0.55046004 -0.52154696 -0.47939068 -0.49540818 -4.276063e-05
0.55765545 0.004646633 -0.0067220517 0.5767534 1.2440122 0.6032737 0.00996433 -0.6235454
-0.61309177 0.6028016 -0.6188299 -0.5718651 -0.5918007 -0.5720781 -0.4510286 0.1325081
0.21598092 0.009259072 -0.075494595 -0.32578942 -0.5055446 -0.21040629 -0.0035213365 -1.5274789
0.19830452 -0.49270532 -2.2609317 -3.5643158 -0.06058294 -0.016887845 0.40229228 -0.091363
-0.06447985 0.36907926 0.84384847 0.5670301 0.02512593 -1.1759319 -0.41718328 0.3767177
-0.46054602 -0.43763733 -0.39307752 -0.44094753 0.15324606 -0.67345774 -0.2754618 -0.42027828
-2.1287513 0.13589843 -0.41977158 0.22961347 -1.2411582 -1.969908 -0.75596917 0.68923396
0.44142157 -0.14662519 0.28654507 0.007189655 0.6193637 0.005700066 0.016023472 0.6304483
1.3190739 0.6335494 -0.008444044 -0.65238845 -0.6457226 0.64261794 -0.64058274 -0.6185997
-0.6300261 -0.6271197 0.0125198765 -0.9062498 -0.031575214 0.024641613 -0.88162726 -1.632464
-0.740066 0.04669583 -0.7366757 0.73998153 -0.7654434 0.84509057 0.84335804 0.8184681
0.8356378
00000000: 0caf a13d 6d45 c23e 6357 003e 8507 e8ba
00000010: 7a51 ef3e 21ad 4d3f 9342 203e f51f 1abd
00000020: fee0 6dbf 119b a6be 8a97 c73e 04a9 a5be
00000030: a01b b9be d17b edbe f1d5 cbbe f884 5f3d
00000040: e11b d9be d628 47bd 84fc bfbd ec29 e5be
00000050: a1ea 65bf 8f23 cdbe 7e27 f13c 5685 00c0
00000060: f56a f03e 3c13 e2be 5579 e13e a2e4 d83e
00000070: 03c4 be3e 225a ef3e 75d8 913e 30bc 28bf
00000080: b75f 68bf 9809 643e 6671 26be be4f 9bbe
00000090: 92c6 08bf a3f1 8bbf 46f9 50c0 bba5 03c0
000000a0: 525b 1bbf 8df7 f8bf 081d ee3d 12ac df3d
000000b0: 819c 0c3f 27bd 27bd 0003 983e a35c 5f3d
000000c0: 6fde eb3c c79c 913e 2b72 533f 777f bf3e
000000d0: a177 85bc 2edf 12bf 44ea cebe 6db7 b33e
000000e0: 28f6 b6be 7e3d 9cbe 2128 96be 82ec 98be
000000f0: e96f 8bbc 6f37 dfbd 8a5c 11bd a1bb a53c
00000100: 34b7 87bd 327b 4abe cbc6 883f f4bf 5e37
00000110: fb5c 833d 8df9 843d 53a5 e8bd 5fe1 92bf
00000120: 4999 bf3d c71d c53d c691 743d 8517 02bc
00000130: 25dd 39bf 0daa 5fbc c293 79bd 1b68 4bbf
00000140: c6ba 8ebe 4ffa c63e 5779 dabd 29a6 01bf
00000150: 5188 f4be 35b2 3ebf 51e8 643f 7cc8 5c3f
00000160: 2db7 463f 55ff 07bf 0b65 e53c 3899 1e3e
00000170: e4b1 50bd 4648 333b e012 423e c3a1 d23e
00000180: 6b4e 533e 9339 d13c 90e1 fdbe 4ebd 67be
00000190: f0ca 853e 1182 6bbe 58a7 32be 1a48 5dbe
000001a0: f4c8 3abe 3829 a9bc a635 80be d21c 10be
000001b0: 7437 18be 7aeb 26bd 47bd e23d 9f68 83be
000001c0: 9a58 36be 80bb 7ebb f0d9 34be c798 86be
000001d0: 5bc3 31be fede 01be 8bfe 64bd 1ed5 503d
000001e0: 26cc 70bc a4c2 0e3f 6d0e 17bd 7fe6 013d
000001f0: 847f 0f3f dab5 843f 510d 123f 16a2 3cbb
00000200: b46e 393f c95a 0ebf 678f 033f f3ea 0cbf
00000210: 1a84 05bf b272 f5be 24a6 fdbe e059 33b8
00000220: 82c2 0e3f c842 983b a844 dcbb 1ca6 133f
00000230: cb3b 9f3f 2570 1a3f 6e41 233c aca0 1fbf
00000240: 95f3 1cbf 3551 1a3f a36b 1ebf c065 12bf
00000250: 4080 17bf b673 12bf 38ed e6be 34b0 073e
00000260: 1a2a 5d3e 5db3 173c e99c 9abd dfcd a6be
00000270: 5f6b 01bf bf74 57be 39c6 66bb 6e84 c3bf
00000280: 5710 4b3e df43 fcbe 1bb3 10c0 c01d 64c0
00000290: d125 78bd 6158 8abc 41f9 cd3e 861c bbbd
000002a0: 030e 84bd f5f7 bc3e 7406 583f e228 113f
000002b0: e5d4 cd3c f084 96bf 0c99 d5be 24e1 c03e
000002c0: b0cc ebbe 0012 e0be 7541 c9be e0c3 e1be
000002d0: 89ec 1c3e ba67 2cbf 5409 8dbe b72e d7be
000002e0: 763d 08c0 f528 0b3e 4dec d6be cb1f 6b3e
000002f0: 46de 9ebf f225 fcbf 3287 41bf a371 303f
00000300: 0202 e23e ea24 16be 09b6 923e 3397 eb3b
00000310: 9f8e 1e3f 9fc7 ba3b a843 833c 0f65 213f
00000320: 6ad7 a83f 4b30 223f e358 0abc ee02 27bf
00000330: 144e 25bf 9c82 243f 3bfd 23bf 8d5c 1ebf
00000340: 6449 21bf eb8a 20bf 2b20 4d3c fdff 67bf
00000350: 0355 01bd 35dd c93c 53b2 61bf 95f4 d0bf
00000360: f774 3dbf 2044 3f3d c796 3cbf 6e6f 3d3f
00000370: 19f4 43bf db57 583f 50e6 573f 2087 513f
00000380: 5cec 553f

bias f4 [15]
0.21652837 0.7414634 -0.5970123 1.1649356 -1.0498987 -0.92373586 1.1331073 -0.31016353
-0.77672714 1.1419572 -0.71762747 0.50682425 -1.119387 -1.4121943 -0.38454068
00000000: 9db9 5d3e 8cd0 3d3f ccd5 18bf 9c1c 953f
00000010: 1563 86bf f479 6cbf a909 913f c1cd 9ebe
00000020: 97d7 46bf a72b 923f 6fb6 37bf 3cbf 013f
00000030: 1348 8fbf c8c2 b4bf 84e2 c4be

weight f4 [10, 15]
-0.8861659 0.5561237 3.236514 0.2910679 0.38089082 0.04601755 -0.034061454 0.14156015
-8.359797 -0.8013998 -2.5172486 -0.9180739 4.2448955 0.22367933 -9.115599 -0.07906577
-0.06657432 0.12649201 -0.1817679 0.11690089 -0.06126291 0.0059095398 0.2034994 -0.055877693
-0.23982833 0.24713947 0.17913008 -0.05701008 -0.08101498 0.04440733 1.2124271 -0.43036762
-0.83411485 -9.380904 -0.08934021 -0.1346169 -0.67339665 -0.057449244 0.75863856 -0.17552927
0.46208534 -0.8886955 0.6998963 0.5654333 0.71579236 0.896172 -0.45576334 -0.124098636
-1.5706375 -2.271688 -0.17971507 -4.300512 0.16237895 -0.30790472 -0.19503352 -2.2620928
-0.18149744 2.276329 -1.9932892 1.2630947 0.2868211 0.19926213 0.20897223 -0.22432943
-0.68767226 0.17629156 0.10937716 0.07979229 0.6773424 1.392853 4.034926 0.47986332
0.9852633 -1.35982 -1.1165357 -0.3510834 0.27390903 5.830246 -0.27209973 1.7240239
0.3741332 -0.16183358 0.18871719 -0.37937894 -0.43724868 3.020193 -0.27458313 -1.7710475
1.8126316 -0.17807968 -0.40281698 0.272502 1.8722422 0.7362393 -0.110676385 0.068333454
0.96891373 -0.10703754 -1.1034667 -3.5870888 -0.3998867 1.4353629 -0.80804574 0.45250815
-0.6668157 0.13015608 0.5806907 0.20651974 0.37514096 0.120036386 -0.25356513 0.16982436
0.1528651 0.29398414 -1.0554162 4.62534 0.18369302 -5.021909 2.1994574 -1.0418391
0.10880783 0.8155883 -3.9705305 0.11774942 -1.4966617 -9.977607 0.05871253 -0.08989908
0.4633964 0.14681098 0.9069131 0.24625283 1.0430562 1.9362068 -1.5579678 -0.3230724
0.85810107 0.07271029 0.054257356 1.1740007 0.19835378 0.032484736 0.010639867 -0.4098008
-0.6776861 1.20416 -0.9479221 -1.3085029 0.7599506 -0.40017042
00000000: c5db 62bf 1f5e 0e3f 0c23 4f40 da06 953e
00000010: 1f04 c33e e67c 3c3d 0684 0bbd 25f5 103e
00000020: bac1 05c1 8a28 4dbf 9a1a 21c0 e406 6bbf
00000030: 2fd6 8740 320c 653e 7ed9 11c1 3ced a1bd
00000040: 1e58 88bd 1f87 013e 5d21 3abe bc69 ef3d
00000050: d1ee 7abd d0a4 c13b 2662 503e 02e0 64bd
00000060: 8f95 75be 2112 7d3e e06d 373e 6783 69bd
00000070: 2feb a5bd 76e4 353d d030 9b3f 2559 dcbe
00000080: 8d88 55bf 2f18 16c1 00f8 b6bd 03d9 09be
00000090: b963 2cbf e64f 6bbd 2336 423f f2bd 33be
000000a0: 7396 ec3e 8c81 63bf 672c 333f 3dc0 103f
000000b0: 2b3e 373f 876b 653f d059 e9be 6d27 febd
000000c0: a60a c9bf 5663 11c0 3a07 38be cb9d 89c0
000000d0: ab46 263e b0a5 9dbe deb6 47be 21c6 10c0
000000e0: 77da 39be 60af 1140 1a24 ffbf 16ad a13f
000000f0: 37da 923e 5f0b 4c3e d1fc 553e 9db6 65be
00000100: 4a0b 30bf c685 343e 2201 e03d 246a a33d
00000110: 5066 2d3f 0249 b23f 1d1e 8140 a5b0 f53e
00000120: 373a 7c3f 950e aebf a4ea 8ebf 34c1 b3be
00000130: ce3d 8c3e 6091 ba40 a850 8bbe d1ac dc3f
00000140: 638e bf3e b4b7 25be 143f 413e f53d c2be
00000150: 0fdf dfbe d84a 4140 2996 8cbe afb1 e2bf
00000160: 5004 e83f 855a 36be 073e cebe 6285 8b3e
00000170: a2a5 ef3f 2e7a 3c3f 4daa e2bd 69f2 8b3d
00000180: bb0a 783f 7f36 dbbd 663e 8dbf dd92 65c0
00000190: f3bd ccbe f9b9 b73f 16dc 4ebf 26af e73e
000001a0: 6fb4 2abf a347 053e 25a8 143f e979 533e
000001b0: 7a12 c03e a3d5 f53d 4ad3 81be 70e6 2d3e
000001c0: ab88 1c3e 1785 963e e117 87bf c902 9440
000001d0: 061a 3c3e 7bb3 a0c0 e9c3 0c40 fc5a 85bf
000001e0: a4d6 de3d 65ca 503f 2c1d 7ec0 9c26 f13d
000001f0: 9c92 bfbf 47a4 1fc1 8d7c 703d 021d b8bd
00000200: 4b42 ed3e 9e55 163e 752b 683f b429 7c3e
00000210: de82 853f a0d5 f73f 7d6b c7bf bf69 a5be
00000220: 83ac 5b3f 22e9 943d f63c 5e3d a845 963f
00000230: 411d 4b3e b70e 053d d652 2e3c 69d1 d1be
00000240: d67c 2dbf ea21 9a3f 06ab 72bf 067d a7bf
00000250: 1f8c 423f 23e3 ccbe

bias f4 [10]
0.20151761 -0.32324117 -0.3481683 -1.6732286 -0.9225 2.1770933 0.08334485 -0.036075927
-0.18840428 1.4281154
00000000: a25a 4e3e de7f a5be 1e43 b2be 5b2c d6bf
00000010: f628 6cbf 7f55 0b40 b4b0 aa3d 5ac4 13bd
00000020: 0ded 40be 7ccc b63f

weight f4 [4, 10]
2.333046 -0.31251276 4.9018373 -8.879005 0.35334203 0.5181531 1.4315745 0.13273492
-0.23029573 0.5679873 2.0416973 -0.007812763 1.4515178 -0.58567107 1.0705031 -8.496486
0.94807833 1.7723393 -0.9592515 1.5288887 -6.2305107 -0.3483282 -0.6914777 -0.50584406
0.47621214 1.9107761 -0.8700977 -2.3668184 0.74091953 -7.226801 -1.8916751 -0.15830913
-1.2721604 -0.15998492 -2.704493 0.6537127 -1.5299646 3.9476926 -0.38370737 -0.029265055
00000000: a050 1540 ac01 a0be dadb 9c40 6810 0ec1
00000010: 3fe9 b43e aea5 043f d53d b73f aaeb 073e
00000020: a5d2 6bbe 9e67 113f 2bab 0240 1a01 00bc
00000030: 56cb b93f 8aee 15bf 3f06 893f 9bf1 07c1
00000040: 43b5 723f 04dc e23f 8291 75bf a0b2 c33f
00000050: 5860 c7c0 1358 b2be af04 31bf ff7e 01bf
00000060: 14d2 f33e 5094 f43f b9be 5ebf f479 17c0
00000070: e7ac 3d3f f441 e7c0 6922 f2bf ca1b 22be
00000080: 27d6 a2bf 16d3 23be 6a16 2dc0 b759 273f
00000090: e1d5 c3bf ffa6 7c40 4b75 c4be 45bd efbc

bias f4 [4]
0.1618782 -1.2975172 0.14649795 0.7657506
00000000: 66c3 253e 0b15 a6bf 8f03 163e 3b08 443f

weight f4 [1, 4]
-2.189017 -5.3389344 2.1041007 3.9274948
00000000: db18 0cc0 8dd8 aac0 96a9 0640 135c 7b40
