saved_models/model_full_n12_s12-15-10-4-1_100_0.07_500.pth (torch, 7320 bytes, 7 tensors)

weight f4 [15, 12]
0.6067716 0.4891548 -0.5057464 0.008763564 -0.58031064 -0.53689027 0.016274933 0.5107764
0.0039848206 0.5554727 -0.038809616 -0.52790177 0.53579855 -0.61317676 -0.57058823 0.01229585
-0.6572282 -0.6464883 -0.04905517 -0.5286558 -0.041813076 0.21627024 0.06273723 0.619023
0.6343318 0.8179105 -0.75745684 -0.095854476 -0.6179394 -0.6053925 -0.02719612 0.8438311
0.03256403 0.5916065 -0.05552782 -0.76160765 -0.95230734 0.020923406 -0.06634 -0.039092496
0.17981417 -0.08029735 -0.055563014 -0.01822025 -0.019030575 -0.039545428 -0.02121353 0.17113711
0.60116047 -0.5388126 0.53449726 -0.015714563 -0.5461608 -0.57753474 -0.03947897 -0.5523612
-0.013290549 0.577383 -0.0017602395 -0.21948732 -0.11763379 -0.5924877 0.5920751 0.039179016
0.14306816 0.10317314 0.028784338 -0.5634399 0.035680994 -0.23666385 -0.004506501 0.5074574
-0.71723557 -0.76761097 0.7865983 0.025387619 0.69336706 0.678517 0.017866638 -0.78146195
0.004805048 -0.758477 0.0066978307 0.7865147 -0.16458198 -0.2862695 0.5931837 -0.12778072
0.26232436 -0.58996123 0.1318151 -0.40021908 -0.032222696 -0.46294227 -0.06383923 -1.4670651
0.5740804 0.6405553 -0.64312434 0.008542802 -0.5860653 -0.60580426 0.00062997045 0.63126844
-0.0042639603 0.6022218 0.011928218 -0.6338544 0.011467482 0.030098045 -0.06991833 -0.4048723
0.11360177 0.010577787 -0.0071190484 0.029681798 -0.10124702 -0.47119612 -0.21445458 -0.23591003
0.43771008 -0.35403353 0.38346612 -0.05038941 -0.40412974 -0.31951028 0.019637236 -0.36800024
-0.0044044447 0.42608073 0.02628211 0.7916131 0.56472623 -0.67512864 -0.5570987 0.014126256
-0.5862747 -0.72930026 -0.029288085 -0.55858845 -0.072725445 -0.14060949 0.097583905 0.6574937
0.051838934 -0.12784013 0.19496983 -0.05542298 0.5595985 0.7301785 -0.035286568 -0.12965435
-0.02925425 -0.60001504 -0.087708004 0.08233506 0.6988314 -0.6485962 0.5648835 -0.022005945
-0.70684487 -0.7369766 -5.4077427e-05 -0.6953269 0.02345056 0.73648363 -0.019056467 0.6990966
0.7532577 -0.74856234 0.8385293 -0.04581168 -0.6735227 -0.68911994 -0.020022975 -0.80882484
-3.151036e-05 0.6679231 -0.0113479225 0.5422427
00000000: 6255 1b3f 7f72 fa3e 9978 01bf 0d95 0f3c
00000010: 3d8f 14bf a471 09bf 0253 853c 3ec2 023f
00000020: 1993 823b 7533 0e3f d5f6 1ebd 9224 07bf
00000030: 182a 093f 27f9 1cbf 1212 12bf 8874 493c
00000040: 1b40 28bf 4280 25bf 13ee 48bd fd55 07bf
00000050: 3044 2bbd f275 5d3e 607c 803d 4b78 1e3f
00000060: 9263 223f 9562 513f b1e8 41bf 5a4f c4bd
00000070: 4731 1ebf 01fb 1abf 66ca debc 5105 583f
00000080: dc61 053d 8673 173f 2471 63bd b8f8 42bf
00000090: 6aca 73bf 9067 ab3c 44dd 87bd 741f 20bd
000000a0: 3521 383e f072 a4bd 0b96 63bd a242 95bc
000000b0: 02e6 9bbc 63fa 21bd ffc7 adbc 913e 2f3e
000000c0: a7e5 193f 9fef 09bf d0d4 083f d4bb 80bc
000000d0: 32d1 0bbf 51d9 13bf b3b4 21bd 8b67 0dbf
000000e0: 9ac0 59bc 5fcf 133f d6b7 e6ba 49c1 60be
000000f0: fce9 f0bd 46ad 17bf 3c92 173f 2d7a 203d
00000100: 7680 123e 704c d33d 22cd eb3c 993d 10bf
00000110: 3c26 123d 0258 72be 45ab 93bb bae8 013f
00000120: c09c 37bf 2782 44bf 825e 493f b2f9 cf3c
00000130: 8180 313f 4ab3 2d3f 0e5d 923c e40d 48bf
00000140: aa73 9d3b 8c2b 42bf 7a79 db3b 0759 493f
00000150: 2e88 28be ea91 92be e3da 173f f3d8 02be
00000160: 614f 863e b307 17bf 8afa 063e 84e9 ccbe
00000170: f2fb 03bd c506 edbe 24be 82bd cac8 bbbf
00000180: eff6 123f 6ffb 233f cca3 24bf 1cf7 0b3c
00000190: 6008 16bf fd15 1bbf 9a24 253a cf9a 213f
000001a0: b1b8 8bbb 352b 1a3f 936e 433c 4844 22bf
000001b0: 1be2 3b3c 2d90 f63c 5731 8fbd 6c4b cfbe
000001c0: 0ba8 e83d 744e 2d3c e846 e9bb 3e27 f33c
000001d0: 995a cfbd 9e40 f1be fb99 5bbe 6692 71be
000001e0: 891b e03e e243 b5be ac55 c43e 2065 4ebd
000001f0: 18ea cebe da96 a3be 45de a03c 876a bcbe
00000200: 2953 90bb 4127 da3e 944d d73c 28a7 4a3f
00000210: e691 103f 3bd5 2cbf 059e 0ebf d071 673c
00000220: 1916 16bf 6cb3 3abf 91ed efbc a7ff 0ebf
00000230: 14f1 94bd effb 0fbe 12da c73d 8251 283f
00000240: 1055 543d 86e8 02be 2ca6 473e 3503 63bd
00000250: d941 0f3f faec 3a3f a688 10bd 1cc4 04be
00000260: 9ca6 efbc 969a 19bf 41a0 b3bd 499f a83d
00000270: 9de6 323f 670a 26bf 349c 103f d045 b4bc
00000280: c9f3 34bf 80aa 3cbf 32d1 62b8 f200 32bf
00000290: 641b c03c 318a 3c3f 4f1c 9cbc fff7 323f
000002a0: 7fd5 403f c8a1 3fbf dba9 563f 07a5 3bbd
000002b0: fc6b 2cbf 2a6a 30bf 3907 a4bc 250f 4fbf
000002c0: fe29 04b8 02fd 2a3f a3ec 39bc 6bd0 0a3f

bias f4 [15]
-1.1501963 0.19755614 -0.35055467 0.811243 0.4101211 -0.7792864 -0.33346832 0.0062832655
0.6145942 -0.31898117 -0.17173709 0.32123572 0.8771302 -0.7736545 -0.033229508
00000000: a239 93bf 284c 4a3e e77b b3be 9fad 4f3f
00000010: 65fb d13e 507f 47bf 5cbc aabe dae3 cd3b
00000020: 0c56 1d3f 8051 a3be d9db 2fbe 0279 a43e
00000030: 9b8b 603f 390e 46bf aa1b 08bd

weight f4 [10, 15]
0.18761533 -0.5379178 -1.2144786 0.12260948 0.66939616 0.9618776 0.9143202 0.46702364
-0.12093344 -0.22601953 0.3388322 0.53095025 0.31534255 0.92831635 -0.5378373 0.14473026
0.003090009 -0.100799076 -0.20442043 -0.05355934 -0.07249507 -0.052487314 -0.08443813 -0.11090042
-0.19188246 -0.23227584 -0.28415674 -0.017348975 -0.10702286 0.17585146 -1.9891788 -0.2387682
0.17041324 1.0127721 0.46092057 1.0996428 1.1543442 1.0165164 1.1533433 0.054901067
1.0322049 -0.042468414 0.9668166 -0.7184037 -0.51283795 2.1385255 0.19479977 0.67966235
-0.27013358 -0.4965396 -1.0607837 1.7388046 0.12528057 0.109733015 0.08798789 -0.3647144
-0.17607595 -0.27296174 1.7785287 0.37305325 -0.25546235 0.8834369 -0.9819979 0.12740617
-0.8645676 0.14858846 -0.3530073 0.42920533 -2.0639803 0.055649336 -0.5060571 -0.6193654
0.11528237 -2.4124508 1.4265162 2.9499416 1.7204461 0.3609002 -0.19416508 -0.90861315
0.3067313 -0.5368835 -0.026642114 0.46810406 -0.034219574 -0.7237467 -1.8608321 -0.28367132
-4.0488234 1.4275947 0.29837725 -0.4940629 1.5007697 -0.6710267 0.52033335 0.016830474
-0.5370127 0.43940777 0.78865635 0.056880083 0.1291011 0.2829218 -0.79398584 1.3069649
-1.1574637 -0.99881744 -0.23824717 -0.032065164 -1.0462618 0.36026576 -0.9843682 -0.49422765
-0.027473247 -1.0980887 0.02975443 0.20423298 -0.39481434 -0.36132345 0.8590527 0.61190295
-0.19476266 0.09542653 -0.25241786 0.062017888 -0.052948125 -0.19205399 0.093553804 -0.3309704
0.023105528 -0.10250066 -0.09589588 -0.102723055 -0.040308964 -0.10696906 0.023605987 -0.70280945
0.2817707 0.2696476 -0.26170257 -0.56548744 0.22387472 -0.540151 -0.77646315 0.9938612
0.11708411 -0.57110673 -0.18190427 -0.18294998 -1.4056373 1.3926499
00000000: 3c1e 403e fbb4 09bf 0974 9bbf ae1a fb3d
00000010: 8c5d 2b3f 9c3d 763f e310 6a3f b91d ef3e
00000020: f4ab f7bd aa71 67be 6a7b ad3e 5bec 073f
00000030: 9474 a13e 24a6 6d3f b5af 09bf 2b34 143e
00000040: c081 4a3b bf6f cebd 9753 51be 0a61 5bbd
00000050: 4c78 94bd f0fc 56bd e6ed acbd c21f e3bd
00000060: d67c 44be b8d9 6dbe fe7c 91be 701f 8ebc
00000070: cd2e dbbd 6812 343e 699d febf a77f 74be
00000080: cf80 2e3e 84a2 813f c8fd eb3e 18c1 8c3f
00000090: 8dc1 933f 361d 823f c1a0 933f f1df 603d
000000a0: 4a1f 843f 5cf3 2dbd 4b81 773f 4ee9 37bf
000000b0: 5949 03bf 9add 0840 9779 473e 5afe 2d3f
000000c0: f34e 8abe 703a febe c3c7 87bf 2691 de3f
000000d0: 8d49 003e b4bb e03d ff32 b43d d9bb babe
000000e0: 414d 34be a4c1 8bbe d4a6 e33f d600 bf3e
000000f0: f6cb 82be ec28 623f 3764 7bbf c376 023e
00000100: 4d54 5dbf 9327 183e 5fbd b4be cdc0 db3e
00000110: 4118 04c0 8ff0 633d f58c 01bf bb8e 1ebf
00000120: 2a19 ec3d 9865 1ac0 1598 b63f d8cb 3c40
00000130: 9437 dc3f e9c7 b83e 36d3 46be df9a 68bf
00000140: e30b 9d3e 3271 09bf 9040 dabc 56ab ef3e
00000150: d329 0cbd 7747 39bf bf2f eebf 5e3d 91be
00000160: f68f 81c0 6cbb b63f e7c4 983e d0f5 fcbe
00000170: 3919 c03f 68c8 2bbf 9134 053f 10e0 893c
00000180: aa79 09bf 0efa e03e 62e5 493f 17fb 683d
00000190: 1433 043e 20db 903e a842 4bbf a04a a73f
000001a0: c527 94bf 80b2 7fbf 11f7 73be c356 03bd
000001b0: e8eb 85bf c174 b83e 8eff 7bbf 680b fdbe
000001c0: 930f e1bc 2c8e 8cbf 90bf f33c 7322 513e
000001d0: 1b25 cabe 63ff b8be e1ea 5b3f aca5 1c3f
000001e0: dd6f 47be fc6e c33d ea3c 81be 7806 7e3d
000001f0: 22e0 58bd cda9 44be 2399 bf3d f474 a9be
00000200: ce47 bd3c deeb d1bd 0f65 c4bd 7760 d2bd
00000210: 031b 25bd 9812 dbbd 5861 c13c 52eb 33bf
00000220: 4044 903e 400f 8a3e e1fd 85be c9c3 10bf
00000230: 6a3f 653e 5647 0abf 4ac6 46bf b06d 7e3f
00000240: cbc9 ef3d 0d34 12bf 1d45 3abe 3d57 3bbe
00000250: eceb b3bf 5a42 b23f

bias f4 [10]
-0.15578723 -0.14143345 0.003294382 -1.1141843 0.72909325 0.09465507 -0.87550724 -0.35678503
-0.1952326 -0.5076082
00000000: b086 1fbe eed3 10be 8fe6 573b 979d 8ebf
00000010: dba5 3a3f 84da c13d 3e21 60bf 87ac b6be
00000020: 0eeb 47be 9cf2 01bf

weight f4 [4, 10]
-0.15429322 0.15195808 -1.7658621 0.45385334 -0.25703603 0.3506961 0.81203395 1.4230919
-0.11786343 -0.34263065 0.46578962 -0.028422542 0.9498421 -1.607106 -0.96752596 -1.9394696
1.066532 -1.8678362 -0.130726 -0.11425437 0.89994264 -0.19506556 0.48930106 -2.502011
-2.6066382 -3.676825 -0.47768244 -0.66946703 0.087145545 -2.7803102 -0.50763315 -0.01200676
0.5670053 0.87514263 0.86413443 -0.25219736 -2.601938 -0.8316887 -0.0010428913 0.4378691
00000000: 0bff 1dbe e69a 1b3e c507 e2bf 775f e83e
00000010: 3a9a 83be 708e b33e 75e1 4f3f e027 b63f
00000020: 6262 f1bd 496d afbe fa7b ee3e 64d6 e8bc
00000030: da28 733f a6b5 cdbf c8af 77bf 8a40 f8bf
00000040: 1f84 883f 4215 efbf 09dd 05be 32fe e9bd
00000050: a462 663f 44bf 47be ab85 fa3e f320 20c0
00000060: 29d3 26c0 1a51 6bc0 cb92 f4be 3162 2bbf
00000070: 5d79 b23d 9af0 31c0 3ff4 01bf 00b8 44bc
00000080: 4227 113f 5909 603f ea37 5d3f 0320 81be
00000090: 2786 26c0 8de9 54bf a0b1 88ba 6130 e03e

bias f4 [4]
-0.3277884 0.33096072 -0.35298935 0.51837546
00000000: e2d3 a7be af73 a93e 05bb b4be 41b4 043f

weight f4 [1, 4]
-3.7873516 -1.7132424 -3.8138883 2.0430481
00000000: f863 72c0 874b dbbf bf16 74c0 4dc1 0240
