saved_models/model_full_n9_s9-15-10-4-1_100_0.07_500.pth (torch, 7040 bytes, 7 tensors)

weight f4 [15, 9]
000000 1a e9 74 be 9f 38 3d 3f ab d1 a4 bb a7 01 3e bf
       -0.23917046 0.7391452 -0.005029877 -0.7422127
000010 21 42 7a be eb a6 e3 be 1d be 2c bf a2 79 93 bf
       -0.24439289 -0.44463286 -0.6747759 -1.1521494
000020 5c 6d 3f bf 90 c1 85 3c 45 91 18 3f 99 7b a7 be
       -0.74776244 0.01632765 0.59596664 -0.32711485
000030 b9 ba 30 bf cc f4 bb 3e 3a c7 ac 3e 83 5f 9d bd
       -0.69034916 0.36710203 0.33745748 -0.07684233
000040 8a 08 48 be e3 bf 72 bf 0d fa 4b 3c de 4c 30 bf
       -0.19534507 -0.94824046 0.0124497535 -0.6886729
000050 d6 f8 4c bd ab 14 14 3f 23 66 ff be a0 4b 3e ba
       -0.050041996 0.57844037 -0.49882612 -0.0007259194
000060 55 99 ba 3f 42 3e 6e bd c5 9e 7a 3f d8 92 f6 bd
       1.4578043 -0.058164842 0.97898513 -0.12039727
000070 ba f3 a4 bf df 50 91 bd 6b fc 9f be f7 10 5c 3e
       -1.288688 -0.07095503 -0.31247267 0.21490847
000080 9d 0b 5a bd 1b 04 11 bf b1 92 4f bd 57 39 c3 be
       -0.05323373 -0.5664689 -0.050677005 -0.38129684
000090 d2 0e 8a 3c 57 35 03 bf 50 b7 3b 3d 32 d5 e8 3e
       0.01685277 -0.51253265 0.045829117 0.45475155
0000a0 fc 61 35 bf 26 3b 1a 3f b4 1f 24 c0 0f 05 32 3d
       -0.7085264 0.60246503 -2.564435 0.043461856
0000b0 c3 3f 0c 3f 8d 84 bc bc 34 c9 63 bf e7 65 14 bd
       0.5478479 -0.023012424 -0.88978887 -0.036229994
0000c0 12 9a 72 3f 08 9b 6c bf 1f 9e 37 3f bf 86 5e 3f
       0.9476634 -0.9242406 0.7172565 0.86924356
0000d0 0b 7c 3a bd ab 09 5b 3f 5c 2d 53 bd 5b d5 53 3f
       -0.045528453 0.8556163 -0.05155693 0.8274743
0000e0 63 09 31 be ea 9e 37 bf 19 5e 27 3f 33 f0 9a bf
       -0.17288737 -0.7172686 0.65377957 -1.2104553
0000f0 da e8 e2 3e e1 5f 3d be 24 e0 0a bc e6 0d 77 3d
       0.44318277 -0.18493606 -0.008476291 0.06031599
000100 dc 39 79 be 81 9d 9a 3d 38 4d 18 3f 4f 71 66 bf
       -0.24338478 0.07549573 0.59492826 -0.90016645
000110 cb 00 fe bf 8d 75 fd 3e 67 9f 3b be 6a 19 ca bf
       -1.9843992 0.49503747 -0.18322526 -1.5789006
000120 6e a4 16 be 36 c4 c3 be 77 fd 9e 3d 8f 17 37 3f
       -0.14711162 -0.38235635 0.07763188 0.7152032
000130 0c 49 ac be c7 62 fe 3e bd 07 04 3f f4 19 e0 bc
       -0.3364948 0.49684736 0.5157431 -0.027356125
000140 c4 8b 91 bf 0e e3 83 bb d2 02 07 3f d7 fe d6 3d
       -1.1370778 -0.0040248698 0.5273868 0.104978256
000150 58 9a 0a bf c0 ab 9d bf ce 48 29 bf 76 63 3e bf
       -0.5414176 -1.2318039 -0.66126716 -0.74370515
000160 ed 0b 8e 3d 6f 0e 12 bf e7 0b e0 bc b2 9d 24 be
       0.069358684 -0.57053274 -0.027349425 -0.16075781
000170 cd f6 68 bd 6d b6 11 3f 80 1d 0d bf 47 38 8a 3e
       -0.056875993 0.56918985 -0.5512314 0.2699606
000180 11 71 b7 bf 0e 5d 7b 3c e4 f9 15 3f c6 39 83 bd
       -1.433138 0.01534201 0.5858443 -0.06407504
000190 4a af 35 3f a4 3d 9b 38 bd fb 30 bf ef f0 2c 3f
       0.70970595 7.4024574e-05 -0.6913412 0.67555135
0001a0 c7 e8 09 3f a5 0f 46 bf b3 c8 dd 3c d1 3c 47 bf
       0.53870815 -0.7736762 0.02707324 -0.77827173
0001b0 08 ec 72 bd 47 21 8d 3f 3b ea 24 bb e8 41 33 3f
       -0.05930713 1.102578 -0.0025164026 0.7002244
0001c0 48 1f 3f bf 5d e0 4a 3e b1 74 45 3f 02 1a 5d be
       -0.74657106 0.1981215 0.7713118 -0.21591952
0001d0 56 23 bb bf 36 ad 94 bd 0e 4d 2e 3f 80 f8 a8 3d
       -1.4620159 -0.072596 0.68086326 0.082505226
0001e0 2c 3c 25 bf c6 69 fc 3e 43 b7 93 3f fc eb 09 bf
       -0.6454494 0.4929945 1.1540302 -0.5387571
0001f0 35 c0 3e 3b f4 bb 4b bf 36 15 6f 3d e0 a2 c0 3d
       0.0029106264 -0.7958367 0.058369838 0.09406066
000200 ba ce 7b bd 4f d4 55 be 30 df 5d bd 6f 58 29 be
       -0.061476447 -0.2088177 -0.054167926 -0.16537641
000210 d1 16 91 be df 18 79 be 65 0e 21 be
       -0.2833772 -0.24325894 -0.15728147

bias f4 [15]
000000 41 5b 25 3e 72 84 d8 be 96 49 3f 3f e9 07 63 3f
       0.16148092 -0.42288548 0.7472166 0.88683945
000010 16 2f b2 be ad 66 54 be 3c f7 8e 3e d5 72 8b bc
       -0.3480155 -0.20742293 0.27923 -0.01702253
000020 d5 33 b5 3d 0c 53 60 3f b4 64 24 3e 46 1e 27 bf
       0.08847777 0.8762672 0.1605404 -0.6528057
000030 02 ef 3d be 29 30 45 3e cd fa 77 be
       -0.18548205 0.19256653 -0.24216767

weight f4 [10, 15]
000000 b8 d4 4b 3d 54 70 a8 bd e6 eb 0c be 10 02 8f 3d
       0.04976341 -0.0822455 -0.13761863 0.06982815
000010 69 f3 52 be 50 fa 59 3d 7e f1 6a be bd f2 78 be
       -0.20600666 0.053217232 -0.22943684 -0.24311347
000020 b4 c7 1a 3e a1 19 75 be 17 cd 58 be 39 70 09 be
       0.15115243 -0.23935558 -0.21171986 -0.13421716
000030 8a 1c 85 be 04 15 f0 3c 98 b6 ce 3d 72 48 f1 bf
       -0.25998336 0.029306896 0.10093421 -1.8850234
000040 82 68 b3 be 1c ec 22 3f 33 56 04 3f 81 f0 08 40
       -0.3504067 0.63641524 0.5169403 2.1396792
000050 f0 9f 24 3f ab 06 8f 3d 87 21 fd 3f 41 fe 6f bf
       0.64306545 0.06983694 1.9775857 -0.93747336
000060 d3 7c dc bf 2f d2 07 3e 77 f6 e8 bf 83 60 3c 3f
       -1.7225593 0.13263772 -1.8200215 0.73584765
000070 6e 90 59 3f ff 86 f5 bd 56 00 31 3f de bb 47 bf
       0.8498601 -0.11988639 0.6914114 -0.7802104
000080 97 f8 d9 bf 84 c5 18 3f 14 6c 81 c0 bb 26 cf bf
       -1.7028989 0.59676385 -4.044443 -1.6183695
000090 f5 a9 82 3f ea 58 a4 bd 0f 75 b2 bf 3d d4 9e be
       1.0208117 -0.080247715 -1.3941973 -0.310213
0000a0 ec f2 f8 bd c9 68 62 bf 69 06 cd 3e 90 c2 cd 3e
       -0.12155709 -0.8844114 0.40043953 0.40187502
0000b0 f5 be 2c 3d 6c 8e 20 3f 69 b5 a2 be 0c 2c 0d 3f
       0.0421743 0.6271732 -0.3177903 0.55145335
0000c0 11 b2 64 3f b6 60 b6 bd af ab b0 bf 2a 45 2c 3f
       0.8933421 -0.08905165 -1.3802394 0.67293036
0000d0 59 1f 11 3f 48 67 79 be 9b 6c 8e bf b3 f7 29 3f
       0.5668846 -0.24355805 -1.1126894 0.66393584
0000e0 6a 87 46 3f 3f 60 22 3f 0b 21 c3 3e 30 87 93 3e
       0.77550375 0.6342811 0.38111147 0.28814077
0000f0 18 88 10 c0 d8 44 4d 3f 8a 67 7c 3d 34 d5 dd 3e
       -2.2583065 0.8018317 0.06162218 0.43326724
000100 95 2b 36 3d 0a d9 1b 40 5d 9d 07 3f ea f1 2f 3f
       0.044475157 2.435122 0.5297449 0.68728507
000110 b2 c6 c5 3e d8 a4 35 3f 14 dc ca 3e 37 59 d3 bf
       0.38628155 0.70954657 0.3962103 -1.6511601
000120 ee 93 a9 bf 57 2f b8 3e 70 5b fd bb 14 fb af 3f
       -1.324827 0.35973617 -0.0077318475 1.3748498
000130 01 cb 75 bf 15 ad 9f be 71 9d 1a 3f 38 e7 10 bf
       -0.96012884 -0.3118674 0.60396487 -0.5660281
000140 05 64 69 be ea d8 05 3f fe 3d 5a 3f bb 25 01 3f
       -0.2279206 0.5228411 0.8525084 0.504482
000150 9c a4 3a be d8 3f f4 3e e5 e1 9a be 02 ae 0e c0
       -0.18226856 0.4770496 -0.3025047 -2.2293706
000160 26 89 bd 3e 44 ee 6c bd c2 20 de be 12 92 c9 3e
       0.37018698 -0.057844415 -0.43384367 0.39369255
000170 ca e7 0e 3f 79 e9 8b 3f 9a 6c 85 bf 4f af ac bf
       0.5582243 1.0930625 -1.0423768 -1.3491
000180 0b 77 f4 3e 4f 14 37 bf b7 69 d2 3e 01 38 81 3e
       0.47747073 -0.71515363 0.4109628 0.2523804
000190 51 33 60 3f 7d 87 d4 3f 17 d7 00 3e a9 23 7a bf
       0.875783 1.6603848 0.1258205 -0.97710663
0001a0 77 5e ae 3e 49 90 72 3f 10 9d ff 3e 05 ac 8d be
       0.34056446 0.9475141 0.49924517 -0.27670303
0001b0 85 10 fa be 71 d5 88 be 2b 16 8f bf 00 02 08 bf
       -0.48840728 -0.26725343 -1.117864 -0.5312805
0001c0 b5 24 ec 3d e3 11 29 bf e0 21 fe bf 3a 6a 6e be
       0.11530439 -0.6604292 -1.9854088 -0.2328271
0001d0 f9 2d 6f 3f 95 72 b6 bf 53 f5 df 3e 7e 67 28 be
       0.93429524 -1.4253718 0.43741855 -0.16445729
0001e0 e5 10 28 3f 3e c8 71 3f c0 09 3f bf cb 89 ab bf
       0.6565078 0.9444617 -0.7462425 -1.3401426
0001f0 d3 1f 89 be 1c ea ee 3e 6e f2 91 3d a9 64 43 be
       -0.26782092 0.46662986 0.07126318 -0.19081368
000200 fd f9 6c bf 28 cf 61 bf c7 d4 86 bf eb d5 aa 3f
       -0.9256895 -0.8820672 -1.0533684 1.3346533
000210 85 77 c9 be 86 b1 89 3f 2c 3c 70 3e 59 d1 7f 3e
       -0.39349 1.0757301 0.23460454 0.24982204
000220 27 23 8f be 3e 0a be 3d 59 9c b5 3d bf c2 7c bf
       -0.27956507 0.09279297 0.088677116 -0.9873466
000230 a7 00 bb bf 21 cc 21 3f 99 2a 56 3f 37 d0 1b 3d
       -1.4609574 0.632021 0.8365875 0.038040366
000240 1f d3 86 3f 88 2c 20 3f e4 2f c3 3f e4 46 ef 3d
       1.0533179 0.6256795 1.524899 0.11683443
000250 f0 d8 45 3f 5f 11 87 3e
       0.77284145 0.2638044

bias f4 [10]
000000 c5 23 c6 be 40 3a a8 3e 04 a7 93 3e 86 a3 9c 3f
       -0.38699165 0.3285694 0.2883836 1.2237403
000010 aa f2 a3 bc a2 b9 09 3f b7 da 60 3e 46 a3 9e be
       -0.020013172 0.5379888 0.21958433 -0.30983943
000020 c0 f7 4a 3e b6 e2 28 3f
       0.19821072 0.65970933

weight f4 [4, 10]
000000 ce 8e 00 bd d9 70 16 bf f7 66 06 3e b0 d6 19 40
       -0.03138619 -0.5876594 0.13125215 2.4037285
000010 a2 f0 25 3f de d9 06 c0 d3 0d 3f c0 35 b5 f1 3d
       0.648203 -2.1070476 -2.9852188 0.118021406
000020 18 dd aa 3f c6 ab 3d c0 9e 1a 2b 3e eb bf c9 bf
       1.3348722 -2.9636092 0.16709372 -1.5761694
000030 8d c0 42 c0 25 57 42 3f af 50 d4 bf 22 9e 8a 3f
       -3.0430024 0.7591422 -1.6587123 1.0829508
000040 a9 a9 65 3f 1f d4 98 bf c5 31 4e 3f 5b 89 0f 3f
       0.89712006 -1.1939734 0.8054469 0.5606896
000050 f8 32 65 bd 09 7e 81 bf 43 74 f5 bf 1c b1 94 bc
       -0.05595681 -1.0116588 -1.9176105 -0.018150859
000060 a0 6d 22 bf 33 03 2d bf be b5 62 3f 3a 01 c9 3f
       -0.63448524 -0.67583007 0.88558567 1.5703499
000070 9b 21 86 3f 85 1f 25 3f 72 dd 50 3e 60 de 99 3d
       1.0479006 0.6450122 0.20396975 0.07513118
000080 dd a1 3d be 1c 72 82 be 00 d9 78 be 78 e3 d2 3d
       -0.18518777 -0.25477684 -0.24301529 0.102972925
000090 d8 e1 de 3d 08 44 4a 3d ec f3 13 be a3 aa 9b be
       0.1088292 0.049381286 -0.14448518 -0.30403623

bias f4 [4]
000000 3e 69 c1 bf f5 be c2 3e e5 6b 66 bf 8d 6c 3f be
       -1.5110242 0.38036314 -0.90008384 -0.18693753

weight f4 [1, 4]
000000 8d 96 8d c0 df 6e 1d c0 6f d5 ee 3f e4 61 02 be
       -4.424628 -2.459892 1.8658885 -0.12732655
