Saved_Models/n-12-926.pth (torch, 4620 bytes, 7 tensors)

layer1.weight f4 [15, 12]
000000 25 5b 23 be c7 5a ae bd 17 cf c7 be 70 76 6b bd
       -0.15952738 -0.08513408 -0.39025185 -0.057485998
000010 86 4d 5c 3d d0 91 80 be 1f b0 86 bd dd 42 ef bd
       0.05378487 -0.25111246 -0.06576561 -0.11682675
000020 8f 42 fe 3d ae 35 68 be 85 69 2f be 10 1b 2a 3e
       0.12415039 -0.22676727 -0.17130096 0.16611886
000030 0a ce 61 3e 1d f5 34 be a6 56 60 3e 12 82 a6 3a
       0.22051254 -0.17671628 0.21908054 0.0012703559
000040 de 9d 56 be 63 15 30 be 83 9d 02 bc 88 8c 36 3e
       -0.20958659 -0.17195658 -0.007972124 0.17827046
000050 7c 1f 8b bb ef 70 3c be 3a e6 8d 3b 4e d1 5a be
       -0.0042456966 -0.18402456 0.0043304237 -0.21368906
000060 10 ad 7d be 43 d7 ee bd 1e 80 63 be 44 25 24 bd
       -0.2477305 -0.11662152 -0.22216842 -0.0400746
000070 31 de 37 be 0e 1f fa 3d 98 0e 00 bb c4 40 85 bd
       -0.17955853 0.122129545 -0.0019539949 -0.06506494
000080 c1 88 50 3d 2c 9d b6 3d 91 bc 25 3d 3f 97 d2 3e
       0.05091167 0.08916697 0.040463034 0.41131017
000090 c9 49 93 be 68 02 a2 be 61 7f 94 be c6 1b 8e ba
       -0.2876723 -0.3164246 -0.29003432 -0.0010842017
0000a0 2c c4 88 3e d0 a3 a1 be a7 c2 80 bc 8d 46 ac be
       0.26712167 -0.31570292 -0.015717817 -0.33647576
0000b0 cc bd e6 bb f3 21 99 be 10 87 7b bb 84 60 a3 3e
       -0.0070416685 -0.29908714 -0.0038380064 0.31909573
0000c0 95 da 74 be 71 5d 6f be 0e 5c 76 be fe 3e 91 bb
       -0.23911507 -0.23375489 -0.24058554 -0.004432558
0000d0 af 95 75 3e aa fa 64 be 9b 09 e3 bb c5 b0 67 be
       0.23982881 -0.22361246 -0.0069286353 -0.22626026
0000e0 0e b5 95 bb f7 e8 5e be 3d d4 95 3b 82 23 61 3e
       -0.0045687025 -0.21768557 0.00457242 0.21986201
0000f0 78 82 86 bd 81 e7 36 3e dc b1 bc bd a7 72 37 3d
       -0.06567854 0.17861749 -0.092136115 0.044787075
000100 b9 69 21 3e b8 62 a5 3e 5c 7e a1 bc 5b 92 a1 3e
       0.15762986 0.3230188 -0.019713573 0.31556973
000110 ba f9 a7 3b 1d 53 bd 3e 4b 0b fe 3c e8 23 04 3e
       0.0051262053 0.36977473 0.031011244 0.12904322
000120 19 ee b1 be 1d 7a b0 3e 02 7b c8 be 39 54 ee 3b
       -0.34751967 0.34468165 -0.39156348 0.0072732237
000130 55 8c b9 3e 4c 77 c2 3e 9d 48 7c 3c 0b e3 d6 3e
       0.36239877 0.3798164 0.015398172 0.41970095
000140 9b 8d 29 3c bb 83 b5 3e ad 14 28 ba 85 4e a4 be
       0.010348703 0.35452065 -0.00064117723 -0.32091156
000150 13 58 6b be bb 0d 6f 3e 12 46 89 3e 68 3f bd bb
       -0.22982816 0.23345082 0.26811272 -0.005775381
000160 97 f3 5e bd 0d 6a 63 3e 65 34 34 3d a5 a0 c8 3c
       -0.054431524 0.22208424 0.04399528 0.024490664
000170 2b 52 1a 3d 99 9b 0f bf be 60 d6 39 3b b4 2c bd
       0.037676018 -0.560968 0.0004088934 -0.04216407
000180 1a b2 d4 3e 66 8d c1 be 4a 2c d4 3e f4 68 05 3c
       0.4154213 -0.3780319 0.4144004 0.008142699
000190 36 2a d3 be af 4b c9 be 7d 1e 62 3b 44 36 b5 be
       -0.41243142 -0.39315554 0.0034503036 -0.35392964
0001a0 3a 1d bf 38 25 dd c2 be 4d 85 09 bc 9f 20 ca 3e
       9.1130336e-05 -0.38059345 -0.008393598 0.39478013
0001b0 a8 21 e7 bd 94 6f 38 3e 48 f2 98 3d f7 99 a3 3b
       -0.11285716 0.18011314 0.074680865 0.0049927193
0001c0 9f 3a 1d be bf 42 04 3e e9 66 5a bb 97 d0 1c be
       -0.15354393 0.12916087 -0.00333255 -0.15313946
0001d0 b9 12 0c 3c 32 98 3f 3e be 93 15 bb 45 2f 0c be
       0.008549386 0.18710402 -0.0022823657 -0.13689907
0001e0 e9 37 7a 3d 77 ef 81 3d 0d ed 58 bd 62 a5 1e 3c
       0.061088476 0.063445024 -0.052960444 0.009682985
0001f0 88 aa 71 3d 49 d7 56 bd 3f 3c bc 3b 92 49 6c bd
       0.059000522 -0.052451406 0.0057444866 -0.05768735
000200 32 65 f3 bd 5c a8 70 3d e5 b8 ed bd 90 04 6d bd
       -0.11884536 0.05875431 -0.116075315 -0.05786568
000210 49 f6 e9 3e 12 4d c8 3c 82 5d b4 3d 07 bb 8d 39
       0.45695713 0.024450812 0.08806898 0.00027032962
000220 29 42 a2 3e 5c ac 1e be 12 81 bf 3c f1 d5 c1 be
       0.316911 -0.15495437 0.023376975 -0.37858537
000230 64 b2 60 be 23 c4 df bd b5 6e e2 bd 47 8b 53 3e
       -0.2194305 -0.10926082 -0.11056272 0.20658599
000240 ec 41 b9 3e 67 6c b6 be 71 af ba 3e 07 4e a7 3a
       0.36183107 -0.3562958 0.36461976 0.0012764343
000250 89 1a b3 be 24 c7 be be 87 f2 17 ba 1c b9 bf be
       -0.34981182 -0.37261307 -0.0005796332 -0.37445915
000260 00 d7 0a bc dc 8f b9 be 2e 81 9a bb 6e c1 c4 3e
       -0.008474112 -0.36242568 -0.0047151065 0.38428825
000270 a8 bb 41 3e 5e 8d 46 be bd 97 49 3e a9 e2 c3 bb
       0.18919241 -0.19389865 0.1968679 -0.0059779477
000280 58 4d 29 be 44 85 45 be b7 d4 04 bb 10 56 4b be
       -0.1653341 -0.19289118 -0.002026839 -0.19857049
000290 60 12 f2 bb 02 41 34 be 0b 29 d7 39 06 76 4f 3e
       -0.0073874444 -0.17602924 0.00041038575 0.20259866
0002a0 18 fd 5c 3e af 3a 43 be a9 e6 61 3e b7 87 d6 ba
       0.21580923 -0.19065355 0.22060646 -0.001636735
0002b0 cb 37 57 be 5e 9b 4f be 33 e5 b4 bb 2e f5 69 3e
       -0.21017377 -0.20274112 -0.0055204867 0.22847435
0002c0 12 22 f7 bb be a5 47 be b9 1a 52 bc 6f 13 a9 be
       -0.0075419033 -0.1949682 -0.012823754 -0.3302264

layer1.bias f4 [15]
000000 30 4a 87 be 3c b4 25 3e bf 53 3d 3c cc 3a 0d 3f
       -0.26423788 0.16182035 0.011555611 0.5516784
000010 1e 29 60 3e d5 e4 ab 3f 17 9b 25 3f 8f 44 84 be
       0.21890685 1.3429209 0.64689773 -0.25833556
000020 ba 86 27 3f 1b 33 ba 3b de aa c7 bd 81 73 98 3d
       0.6543995 0.005682362 -0.09749387 0.074439056
000030 90 54 ae 3e c6 30 05 3f 57 52 ab 3e
       0.3404889 0.5202755 0.33461258

layer2.weight f4 [10, 15]
000000 fb bd e2 bc 7c 53 02 bf d4 c1 28 3e 47 ee 19 3f
       -0.02767848 -0.5090864 0.1648019 0.6012921
000010 89 1d 7e bf 94 b5 c3 3e b2 0f 86 3d dd 81 74 3d
       -0.9926382 0.3822447 0.065459624 0.05969416
000020 32 17 e9 3e b3 25 e6 3d c7 9f da be b0 da f4 3d
       0.4552551 0.11237659 -0.42700025 0.11955774
000030 c8 b7 8d c0 97 dd a5 be c2 f8 bb 3e 63 9c e7 bd
       -4.428684 -0.32395622 0.36713225 -0.11309125
000040 ae f6 c6 be c7 37 69 3e cb d0 55 3f 79 99 a1 bf
       -0.38860077 0.22775184 0.8352172 -1.2624961
000050 7f 39 09 be da 04 12 3e 47 e3 55 3e 8d d1 99 3f
       -0.1340084 0.14259663 0.2088748 1.2017075
000060 17 d8 3a 3e 08 27 5d be 69 74 3d 3e 8e bd 32 c0
       0.18246494 -0.2159692 0.18501438 -2.7928195
000070 b2 32 00 be 90 86 d1 3e d3 6e 35 3e cb 8a 33 3e
       -0.12519339 0.40922976 0.17718057 0.17533414
000080 b9 53 5a 3d 41 81 3f bf a5 4f ae 3f 89 50 bc bd
       0.0533025 -0.748066 1.3618056 -0.09195048
000090 f6 62 2c c0 2b 28 9f bd 70 0d 0c 3f 79 d0 f2 bf
       -2.69354 -0.07771333 0.54708004 -1.8969871
0000a0 21 c7 37 be eb 7b 6e bd 89 ed 03 3f 12 0c 20 bd
       -0.17947055 -0.058223646 0.51534325 -0.03907401
0000b0 70 d4 f9 bd 08 6f 78 3d 66 a6 ff bf da b7 c7 3d
       -0.12198722 0.060652763 -1.9972656 0.09751864
0000c0 4d 63 94 3f 57 02 e3 bf 0d e3 9a 3e 0b 27 30 be
       1.1592804 -1.7735089 0.3025135 -0.17202394
0000d0 8e e8 2a 3e 22 74 ae be d3 b1 67 3e d0 49 64 be
       0.16690275 -0.34072977 0.22626428 -0.22293782
0000e0 6e b2 82 3e 46 9c ea bc d4 4c 80 c0 71 ac 64 3f
       0.25526756 -0.02863897 -4.0093784 0.89325625
0000f0 22 62 3a 3e 9a 6c 11 3e ae ca d6 3e 01 6e 94 bd
       0.18201497 0.14201584 0.41951507 -0.07247544
000100 11 08 d9 3f 17 55 a1 3e 69 6f 12 3f a0 ec d3 3e
       1.6955587 0.3151023 0.5720125 0.41391468
000110 46 2d 34 bf d0 dc 91 3e 66 00 01 3f ce 77 84 3e
       -0.7038158 0.2848878 0.5039123 0.25872654
000120 d4 1b de be da 7f 65 3f 14 58 eb 3e 84 60 23 3e
       -0.43380606 0.8964821 0.45965636 0.15954787
000130 54 0e a5 3e e9 00 fa be c5 59 28 3f 16 89 d3 bf
       0.32237494 -0.4882882 0.6576198 -1.652621
000140 a1 f7 8e be d1 39 70 bd 66 f0 98 bd 0a 21 8d bc
       -0.279233 -0.058648888 -0.07467727 -0.017227668
000150 c5 68 51 3f 09 30 8b bd 3a 9a 17 3e 29 21 92 3e
       0.8180049 -0.06796271 0.14804927 0.28540924
000160 53 f3 65 3c bd 46 8d 3e 32 16 a2 3d da f3 ef 3e
       0.014035064 0.27593032 0.0791439 0.4686573
000170 d5 db fe 3e 21 87 c5 bd 7c 1f c4 3f 45 4b 6c 3e
       0.49777094 -0.096449144 1.5322108 0.23075588
000180 d2 f6 f8 3e d4 cc c4 3e d4 33 5d bf 8e ac b7 3e
       0.4862581 0.3843752 -0.8640721 0.35873836
000190 95 cd 8d 3f d2 25 b8 3e e8 aa d5 be 2e 91 6a 3f
       1.1078364 0.35966355 -0.41731954 0.91627777
0001a0 be b5 a7 3e 82 c7 7d be 22 cc 0f bf da 30 f8 bd
       0.32755846 -0.24783137 -0.56170857 -0.12118693
0001b0 be a9 bc 3e 4f ef ab 3f 62 f4 11 bd 45 96 9e be
       0.36848253 1.3432406 -0.035633452 -0.30974022
0001c0 72 4a 9a be 5e 30 09 bc a3 cd 2d bf 42 fb 9d be
       -0.30134922 -0.008373348 -0.678919 -0.30855757
0001d0 2b 80 c5 bc 85 da 04 bf 8c 36 ed 3d c6 15 27 be
       -0.024108967 -0.51895934 0.115826696 -0.163169
0001e0 ee 99 95 be 59 30 2d 3f 3f a5 73 3e 8c 37 60 3f
       -0.29219002 0.676519 0.23793505 0.8758476
0001f0 6b 04 42 bf a8 45 cb 3e 0a 0a a7 3b 35 c1 11 3e
       -0.7578799 0.3970158 0.0050976323 0.14233859
000200 71 e7 57 3e 2f f4 8d 3e f8 11 82 3e b4 c9 db 3e
       0.21084382 0.2772536 0.25404334 0.42927325
000210 b2 f0 dd 3e f4 9f 1b 3f 6a ac af 3e e0 55 89 3d
       0.43347698 0.60790944 0.3431123 0.067058325
000220 9a 7c 79 be f8 6f 0f 3d b4 b7 6f be 4a 0a 9c 3d
       -0.24363938 0.03501889 -0.23409921 0.0761915
000230 47 b0 73 be 65 73 a4 3d 1e 14 03 3e 4d 79 2e bd
       -0.23797713 0.08029822 0.12800643 -0.04259615
000240 09 a6 e7 bd 81 49 67 3e e9 02 80 3e f4 db c6 3b
       -0.113109656 0.22586633 0.2500222 0.006068701
000250 58 0a 36 be c3 28 6d 3c
       -0.17777383 0.01447505

layer2.bias f4 [10]
000000 ae 7b 76 3e f8 9d df 3c 11 1e 0d be 37 9e 3e be
       0.24070618 0.027297005 -0.13781 -0.18615042
000010 c8 51 80 3e 82 a2 37 bd 51 63 18 3f d9 5e 85 bc
       0.25062394 -0.044832714 0.59526545 -0.016280578
000020 db d8 fa 3e 9b 2f 5d be
       0.48993573 -0.21600191

layer3.weight f4 [4, 10]
000000 d6 c9 83 bf a1 95 00 c0 d0 66 f1 3f 79 b9 d7 bf
       -1.029597 -2.0091326 1.8859501 -1.6853477
000010 3d dd 39 3f 54 f4 6c bf 49 16 36 3f a4 6e cb bf
       0.7260321 -0.92560315 0.71127754 -1.589314
000020 79 19 fd be a3 d4 89 3d 8e 68 8d 3f 23 6c 01 40
       -0.49433497 0.0673001 1.1047533 2.0222251
000030 45 13 d9 bf ca 13 13 40 58 e8 54 bf 23 c2 fa 3f
       -1.6959006 2.2980828 -0.8316703 1.9590496
000040 ef d1 45 bf 8a d6 14 40 38 eb 0e 3f 30 8f 32 3e
       -0.7727346 2.3255944 0.55827665 0.17437434
000050 39 60 83 bf 5a d9 b9 bf 0a de ff 3f 12 ff 96 bf
       -1.026374 -1.4519455 1.9989636 -1.1796591
000060 c1 a0 3c 3f e9 43 84 bf 62 b3 27 3f 1a 1e e2 bf
       0.7368279 -1.0333225 0.6550809 -1.7665436
000070 45 52 b0 be 3e d0 81 be f3 11 86 bf 31 3b f8 bf
       -0.34437767 -0.2535419 -1.0474228 -1.9393064
000080 d5 22 ea 3f e6 12 ea bf 93 12 0c 3f c8 90 63 bf
       1.829188 -1.8287017 0.5471584 -0.88892794
000090 f0 14 79 3f ec f7 d6 bf 64 fc e5 be 59 d7 b8 3d
       0.97297573 -1.679441 -0.4491912 0.09025449

layer3.bias f4 [4]
000000 0b 13 41 be 57 16 f8 3e 40 ae 1c bf 0e 58 ce be
       -0.1885492 0.48454544 -0.61203384 -0.40301555

output.weight f4 [1, 4]
000000 aa 72 15 c0 66 4e 48 40 e1 cb 0a c0 1d 69 2c c0
       -2.3351235 3.129785 -2.1686938 -2.6939156
