Saved_Models/n-9-951.pth (torch, 4416 bytes, 7 tensors)

layer1.weight f4 [15, 9]
00000000: f60c 2c3e f9eb a43e fb6e 8c3d 58fe 013f
00000010: 2af3 583f 91bf 7d3f 5a94 cdbd a13c 653d
00000020: 264c c6be a95f d6ba ce7e a63e 7132 173c
00000030: 2875 83be 06bf 933e 33b5 9e3e 531b 95be
00000040: 8987 71bb 775b b93e 6e02 d13b 8d86 49be
00000050: 2c25 043c e5ac 743e 577d bb3d f566 4c3e
00000060: f120 b03e f283 0c3d c4e0 b33e 40bd 86bc
00000070: 500b a2be 809f 353b a09e 47bd 5303 71be
00000080: cc61 f53d cb60 09be abfe 14be c6a1 babd
00000090: b771 dcbb 3d7a 323e e9d6 0fbc 25ac 703e
000000a0: 3286 55be 77e4 523e cfa7 aa3e 3aad 3dbc
000000b0: e3c4 a23e 2698 da3f 1776 a840 d9f2 843f
000000c0: 5472 ac40 e068 3a40 7656 b240 28d7 bd40
000000d0: 60e1 733f 5224 a2bf d41f 60bc 25b1 a53e
000000e0: 259f 2d3c d97c bc3e 0ebf d73e d297 72be
000000f0: d90d 933e 8c07 83bb 24fb bebe 91bb bebb
00000100: b5b8 493e d53d 0f3c 57c9 3b3e 71d8 13be
00000110: 582a 413e f247 01be 6c0e 80bb 1437 2dbe
00000120: 4d2d 593c ee8b 433f 66da 8f3d ee3c 0dbe
00000130: 14c1 073f fe3c e0bd e5bf 343f 715d 68bb
00000140: 2d8b 4a3e 2593 96bb d89f 3b3d c8a8 283a
00000150: 8670 1ebd 5f7a 2f3d c0d4 983d d5c4 1ebd
00000160: efa5 6dba 85a8 c4bd b7f0 ebbb 48e1 8a3e
00000170: caef 82bc 7f9d 823e 695c 803e 6a5b 853e
00000180: 39e5 a63e 3981 c2bc a7b0 083e fa67 393c
00000190: d8c8 e43e 16ff c03c ed4d da3e c87f 133f
000001a0: 352e ca3e 46ec 083f ab01 34ba 2906 d3be
000001b0: 4d42 89bc f89b 0d3f aa6f fbba 8f8a 163f
000001c0: ccc6 d6bc f5cc 053f 20c5 ef3e 53ae 5abc
000001d0: b86b e0be b065 5b3d c5dc fb3e a0ed 8fbc
000001e0: c69e 363f a76b 413f 4450 80be 323b 9bbe
000001f0: a63c a9bc a3f0 9c3e ab3d bc3d 1e02 9cbe
00000200: f45e db3c 19b4 12be b317 363f 062c 613f
00000210: f8d8 2d3f f04b 463d 99b6 63bf
0.16801819 0.32211283 0.06857105 0.5077872 0.8474604 0.9912043 -0.100380614 0.055966023
-0.38729972 -0.0016355413 0.3251862 0.009228335 -0.2567532 0.28856677 0.3099762 -0.2912241
-0.0036854467 0.36202595 0.0063784635 -0.19680233 0.008065503 0.23894079 0.09154766 0.1996115
0.34400132 0.03430552 0.3513242 -0.016447663 -0.31649256 0.0027713478 -0.04873526 -0.23536424
0.11981544 -0.1341583 -0.14550273 -0.09112887 -0.006727423 0.17429443 -0.008779266 0.23503168
-0.20851973 0.20594965 0.33331153 -0.011576945 0.31790838 1.7077682 5.2644153 1.0386611
5.388956 2.912651 5.5730543 5.932514 0.9526577 -1.2667334 -0.013679463 0.32361713
0.010597025 0.36814 0.4213795 -0.23690727 0.28721502 -0.0039987024 -0.3730098 -0.0058206995
0.19699366 0.008742769 0.18338524 -0.14438035 0.18863809 -0.12625101 -0.003907969 -0.16915542
0.013255429 0.7638539 0.07024078 -0.13792774 0.5302899 -0.10949133 0.7060531 -0.0035456086
0.19779654 -0.0045951777 0.045806736 0.0006433842 -0.03868153 0.04284131 0.07462454 -0.038761932
-0.00090655586 -0.09602455 -0.0072003263 0.27125 -0.015983481 0.25510785 0.25070503 0.26046306
0.32596758 -0.023743259 0.13348638 0.011316294 0.44684482 0.023559134 0.42637578 0.57616854
0.39488378 0.53485525 -0.00068667036 -0.41215637 -0.016755247 0.55316114 -0.0019183059 0.58805174
-0.02621784 0.52265865 0.46830082 -0.013347226 -0.43832183 0.053563774 0.4919187 -0.017569363
0.7133602 0.7555489 -0.25061238 -0.303186 -0.020658802 0.3065234 0.0919145 -0.30470365
0.026778676 -0.14326514 0.7112991 0.879578 0.67909193 0.048412263 -0.88950497

layer1.bias f4 [15]
00000000: 2538 6d3e 060c 3cbf 1396 f9be 8870 5bbe
00000010: 0d17 34bf f4b2 4f41 79e3 16bd 038a acbd
00000020: d5c7 b2bf f0f6 be3d d904 7cbf 76ac 1bbf
00000030: b16f 98bf 3187 00bf cc74 85be
0.23165949 -0.73455846 -0.4874731 -0.21429646 -0.7034767 12.98119 -0.03683803 -0.08424761
-1.3967234 0.09324443 -0.98444897 -0.6081003 -1.1909086 -0.50206286 -0.2606567

layer2.weight f4 [10, 15]
00000000: 162f a63f 7f0d 7ac0 12c3 d8bf d44c 5f3e
00000010: 5a91 e7be 9229 dfbc f474 98bd b3b2 ce3f
00000020: bc5d e53d 2ca5 42c0 c5b0 6a3f c214 4640
00000030: 0d9e f13f b2b9 a9bf e3b7 93bf 6487 bf3f
00000040: 9554 16bf c26e 1a40 7407 6a3e 08c8 2b3f
00000050: dc2d 24be ead9 b03f 6b0a f2be c625 05c0
00000060: 3936 c1be 55e2 02c0 b9cb f93f 0547 b13f
00000070: 7ccb f5bf 84e2 77bf 0be5 283e 49d1 093d
00000080: e050 1440 abc0 00be 11bb 0941 78d2 71bd
00000090: 47e1 ae3f 618c 1c41 f4ac 8b40 5cbc 7c40
000000a0: ef3f a1c0 edfd 6ac0 679f c8c0 0e58 713f
000000b0: 0d0f 9e3f dd1a 973e 9348 1dbf 5257 1640
000000c0: ac6f 27be 54ed 9bbf 6116 bc3c 0ead 26c0
000000d0: c3eb a2c1 6e48 bc3e e623 3241 cc77 85c0
000000e0: 21c9 94bf 8b90 0941 eeae 2740 2834 29bf
000000f0: 1081 a9bd d41a cfbd 4fc0 0e3e 08c6 123e
00000100: e834 923d 874b 4cbe 50df 8ebe 963f c13d
00000110: 121e 1dbe 2ba9 b8bd 953c 583d 90ed f7bd
00000120: 35cf f6bd 3381 833d 6f5d 243c 0b1c 35c0
00000130: 4b76 4bbf d969 d740 00f6 d8bc f05d 15c1
00000140: 0a7d 34bd 3cf8 57c0 ce1f 7540 3843 7f40
00000150: ab0d 1641 2341 a5bf 2fe1 263f 4240 a740
00000160: 659c 4340 8ab5 e03f 0e67 ce3f 08b9 1341
00000170: c70d 6a41 420d 433e 9c88 34be 4578 05bf
00000180: 5387 2540 adcc 1540 a46e 2a41 e09d 7b41
00000190: 930c ebbf 126a 4f40 aa41 43c1 7e85 db40
000001a0: dbbe 8940 854a 4dbf 9dbc 0641 62ec 0f41
000001b0: 3a90 b6bd 3bc3 b840 fb4b 31bd 9b9c e73f
000001c0: 805b 8c40 8697 ed40 9b46 8840 8e96 8140
000001d0: 5cd4 8ec1 813b 1fc1 f8c2 3f40 dd7f 3940
000001e0: fbbd 903f f565 82c0 c0de cebf c0a8 bebb
000001f0: f0d1 79c0 f93d ae3d 5e19 e8bf 3bf6 97bf
00000200: 9d1f d9bf 0ee4 47c0 07cc c040 dbaa 0e40
00000210: 07d1 e140 6c41 b7bc 913d 9cbf a195 4741
00000220: 5b21 a840 d021 8940 ea52 29be 5951 c040
00000230: 196b 6f41 9543 d140 d03c b640 7582 ce40
00000240: ba67 1040 142a 8540 9949 f440 927d c140
00000250: 8430 ba40 ed19 3d40
1.298312 -3.9070737 -1.6934531 0.21806651 -0.45228082 -0.027241502 -0.07444182 1.6148285
0.11199519 -3.0413313 0.9167598 3.095017 1.8876358 -1.3259795 -1.1540493 1.4963193
-0.5872281 2.4130101 0.22854406 0.671021 -0.16033119 1.3816502 -0.47273573 -2.0804305
-0.3773668 -2.0450642 1.9515296 1.3849798 -1.9202724 -0.9683001 0.16493623 0.033646856
2.3174362 -0.12573497 8.6081705 -0.05903861 1.3662499 9.784272 4.3648624 3.9489965
-5.0390544 -3.6717484 -6.2694583 0.94274986 1.2348343 0.29512683 -0.61438864 2.3490796
-0.16351193 -1.2181802 0.02295989 -2.6043124 -20.365118 0.3677401 11.133764 -4.1708736
-1.162388 8.597789 2.6200519 -0.6609521 -0.0827657 -0.10112539 0.13940547 0.14333355
0.07138997 -0.19950686 -0.2790475 0.09435956 -0.15343502 -0.09016641 0.05279215 -0.12105858
-0.1205124 0.06421127 0.010032042 -2.8298366 -0.79477376 6.731671 -0.02648449 -9.335434
-0.04406456 -3.374526 3.8300662 3.9884777 9.378337 -1.2910503 0.6518735 5.226594
3.0564206 1.7555401 1.61252 9.232674 14.628364 0.19048026 -0.17630237 -0.5213664
2.5863845 2.3406174 10.652012 15.726044 -1.8363212 3.240849 -12.203531 6.8600454
4.304548 -0.8019183 8.421048 8.995211 -0.08914228 5.773832 -0.04328535 1.8094667
4.3861694 7.4247465 4.258619 4.0496283 -17.853691 -9.952027 2.996275 2.8984292
1.1307977 -4.074946 -1.6161728 -0.0058184564 -3.9034386 0.08507914 -1.8132741 -1.1872019
-1.6962773 -3.1232944 6.0249057 2.2291782 7.056766 -0.022370063 -1.2206289 12.4740305
5.2540717 4.2853775 -0.16535535 6.00993 14.963647 6.5394998 5.6949234 6.453425
2.256331 4.1613865 7.633984 6.0465784 5.8184223 2.9547074

layer2.bias f4 [10]
00000000: 61d4 edbf d6c7 333e 79ed 8dbf 92ca bfbd
00000010: c170 813c ad1c 363f 7bea 2d40 6ccc 7a40
00000020: a9e1 0ac0 cc69 2b41
-1.8580438 0.175567 -1.1088096 -0.09364809 0.015800836 0.71137506 2.7174366 3.918727
-2.1700232 10.713329

layer3.weight f4 [4, 10]
00000000: b13e 68c1 6b05 f0be 59dc 3dc1 07bd 9ec1
00000010: c3aa 11bd b689 76c1 2a0e e740 926c 4341
00000020: 643c 8d40 0108 b6bd b719 8940 be09 a140
00000030: 2cac e5bf 6f77 8d3f 6a26 ad3d 55fe 02c0
00000040: 892b 0d3f 4d44 5ebe 9a68 b3be 318c 7abc
00000050: 628e 4840 b67d 0440 2191 ba40 821d 8240
00000060: 58eb 91bd b155 ce40 a792 59bf 6fe3 06c0
00000070: 40b8 64c0 34d3 c63a 5447 68bf 0c8c 98c0
00000080: cb33 86bf 1edc 923e 3a36 39bc a61b 3240
00000090: 9518 24bf fcc2 a4c0 7ee5 6e3f f4ea bfbb
-14.5153055 -0.46879134 -11.866296 -19.842299 -0.03556324 -15.408621 7.220479 12.214006
4.413622 -0.088882454 4.284389 5.032439 -1.7943168 1.1052073 0.084545925 -2.0467732
0.55144554 -0.21705742 -0.35040742 -0.015292213 3.1336904 2.0701728 5.830216 4.066102
-0.071249664 6.4479604 -0.849894 -2.1076314 -3.5737457 0.0015169145 -0.9073384 -4.7670956
-1.0484556 0.2868356 -0.0113044325 2.7829375 -0.6410001 -5.148802 0.9331893 -0.005856866

layer3.bias f4 [4]
00000000: 7aa7 9340 90f6 233f ecda 9e40 ab4f ed3f
4.614194 0.640481 4.964224 1.8539938

output.weight f4 [1, 4]
00000000: cfa9 dd3d 9bf0 33bf 62af 01bf 1f74 3c40
0.10823404 -0.7028901 -0.5065824 2.9445875
